qnn/params/tinier-yolo-conv8-bias.npy (npy, 580 bytes, 1 tensors)

array f4 [125]
-0.0075524277 0.017435895 -0.08159545 0.09342804 -0.8893411 -0.06247101 -0.039332576 0.03046514
-0.011169974 0.03385282 -0.08234327 0.10142929 -0.039621964 0.092339076 -0.015761841 -0.060023822
0.003999922 -0.07630684 -0.0644776 0.3596522 0.021999085 -0.0023042334 -0.08493497 -0.060041543
-0.044951387 -0.011835321 0.0044695097 -0.13911873 -0.15520471 -1.1908995 -0.016069623 -0.009191801
0.034535743 -0.010367788 -0.02125947 -0.036043223 0.0051520416 0.0046533914 0.0866657 -0.03605787
-0.045593034 -0.0030493643 -0.049343962 -0.032515634 0.20978653 0.009431939 -0.011405122 -0.02118617
-0.02170918 -0.036430612 -0.00831692 -0.047887582 -0.0433705 -0.09222802 -1.0307708 -0.03480501
-0.01872456 0.008415705 -0.013239195 0.0073176245 -0.025037369 -0.020710628 0.03623673 0.01947173
-0.03374015 -0.02780102 0.024513423 -0.023614667 -0.028007995 0.21839 -0.0031709783 -0.022792738
-0.03463714 -0.019010738 -0.009055447 -0.024413168 0.010605318 -0.1404051 0.03980984 -0.9855956
0.013907738 -0.00591069 0.019372113 0.0039427998 -0.019562967 -0.03247696 0.015733063 0.027477792
-0.0024658127 -0.01854869 0.011412498 0.013501093 -0.013523988 -0.02237443 0.052195385 -0.017796818
-0.017775543 0.005601707 -0.0027794603 -0.009929435 -0.068776034 -0.053475805 -0.1587914 0.108641624
-0.8668097 0.018775586 -0.013172315 -0.0025854069 -0.0010035543 -0.02810016 -0.030855099 0.006072581
0.044325914 -0.021297185 -0.02750501 0.0036573599 0.037404303 -0.0058543556 -0.025070993 0.12389882
-0.031955685 -0.038912512 -0.012191511 -0.00981249 0.014182158
00000000: 5b7a f7bb b9d5 8e3c 841b a7bd 3357 bf3d
00000010: dcab 63bf 9ae1 7fbd 321b 21bd 0792 f93c
00000020: 4402 37bc 41a9 0a3d 97a3 a8bd 29ba cf3d
00000030: a44a 22bd 451c bd3d fa1e 81bc 8adb 75bd
00000040: c711 833b c346 9cbd d50c 84bd 5524 b83e
00000050: 6d37 b43c 9f02 17bb 63f2 adbd 1fee 75bd
00000060: f21e 38bd efe8 41bc f774 923b 2475 0ebe
00000070: fced 1ebe 656f 98bf 71a4 83bc 3599 16bc
00000080: 5a75 0d3d a8dd 29bc 5728 aebc 0fa2 13bd
00000090: 75d2 a83b 7a7b 983b c97d b13d 6bb1 13bd
000000a0: c3bf 3abd d8d7 47bb e51c 4abd 1d2f 05bd
000000b0: 48d2 563e 6b88 1a3c 8cdc 3abc 9e8e adbc
000000c0: 73d7 b1bc 4438 15bd b143 08bc c525 44bd
000000d0: 44a5 31bd 0be2 bcbd 4cf0 83bf b38f 0ebd
000000e0: 4064 99bc 06e2 093c 35e9 58bc afc8 ef3b
000000f0: 2b1b cdbc 56a9 a9bc f76c 143d 2d83 9f3c
00000100: 1d33 0abd f7be e3bc 60d0 c83c 8c73 c1bc
00000110: 0671 e5bc a1a1 5f3e 30d0 4fbb d6b7 babc
00000120: acdf 0dbd 68bc 9bbc 4c5d 14bc 20fe c7bc
00000130: edc1 2d3c 5bc6 0fbe a50f 233d fe4f 7cbf
00000140: 48dd 633c 76ae c1bb 44b2 9e3c 9a32 813b
00000150: 8442 a0bc 9006 05bd a0e2 803c 1b19 e13c
00000160: 7999 21bb 6cf3 97bc 7cfb 3a3c b033 5d3c
00000170: b893 5dbc 954a b7bc d4ca 553d a2ca 91bc
00000180: 049e 91bc 868e b73b 9b27 36bb 12af 22bc
00000190: 73da 8cbd 7209 5bbd 369a 22be 807f de3d
000001a0: 3ee7 5dbf 42cf 993c b2d0 57bc ee6f 29bb
000001b0: b289 83ba 4f32 e6bc d5c3 fcbc 80fc c63b
000001c0: 178f 353d 6f77 aebc 3052 e1bc 51b0 6f3b
000001d0: 4135 193d e5d5 bfbb af61 cdbc aabe fd3d
000001e0: f7e3 02bd ba62 1fbd e7be 47bc 91c4 20bc
000001f0: 485c 683c
